schwinger/symmetric/3l-1p/opt_params.npy (npy, 512 bytes, 1 tensors)

array f4 [96]
000000 ee a1 c2 3e 4a 7e f5 bf 0f 71 25 3f 7f 38 91 bf
       0.38014168 -1.9179165 0.6462564 -1.1345366
000010 f9 95 94 3e 5b 74 7a bf d1 ea 37 bf 1c 69 58 3e
       0.2902067 -0.97833794 -0.71842676 0.21133846
000020 cc 51 e0 3f 25 98 be 3e 2d 84 cd be 97 3c c6 bf
       1.7524962 0.37225452 -0.40139905 -1.548724
000030 43 ca 05 3e ae d6 d1 3e 20 8b ba bf d3 d5 3a bf
       0.13065438 0.409841 -1.4573708 -0.7298252
000040 97 f9 40 bd 46 9e b2 3f db 6a b2 bf 0e f6 04 40
       -0.047113027 1.3954551 -1.393886 2.077518
000050 3b ab 33 3e 7a 33 69 be 92 1a 99 3f 21 92 e2 3f
       0.17545788 -0.22773543 1.1961234 1.7700845
000060 d0 1f 28 3e 1b 81 e7 be a7 1d 5e 3e 79 db cb 3f
       0.16418386 -0.45215687 0.21690999 1.5926353
000070 54 59 39 3f 51 6c 44 3e 8c b8 c1 bf bc d7 d2 3f
       0.7240193 0.19181944 -1.5134444 1.6472087
000080 be 7e d2 3f ae f4 02 bf 58 ce f6 3e 48 68 98 3f
       1.6444929 -0.511546 0.48204303 1.1906824
000090 77 3a 1a 3f f2 ea 86 bf a6 5d 21 be bc 13 7d be
       0.6024546 -1.054045 -0.1575838 -0.2471456
0000a0 c9 fb 88 3f 89 fa 08 3e 8c 3d df 3f 00 fa 93 bf
       1.0701839 0.13376822 1.7440658 -1.1560669
0000b0 8c 10 26 3f e0 79 95 be f3 8f b0 3f 3c cf b3 bf
       0.64869 -0.29194546 1.379393 -1.4047618
0000c0 e8 46 54 bf 8b b8 88 be b2 13 0f be c9 f3 44 bf
       -0.82920694 -0.26703295 -0.13972357 -0.76934487
0000d0 43 aa c2 bf 65 59 9f 3f df e7 2b 3f b9 82 80 bf
       -1.520821 1.2449156 0.6715068 -1.0039893
0000e0 72 f5 1c 3d 65 ca 10 bf c9 df 8c 3e 9b 86 2d 3e
       0.038320012 -0.5655883 0.27514485 0.16945879
0000f0 eb fa 93 bf f2 34 c8 3f 9d f1 34 bf 5a 9f cb 3f
       -1.1560949 1.5641158 -0.7068117 1.5908005
000100 d6 c5 8c 3f 24 9d cf 3e 8c 56 6b bf b5 c8 fa 3f
       1.0997875 0.40549576 -0.91928935 1.9592501
000110 ba 01 97 3f 76 c9 c4 be a6 05 92 bf b6 ed fb 3f
       1.1797402 -0.38434952 -1.1407974 1.9681919
000120 12 e2 3e bf f1 10 9a 3e dc 48 87 bf c9 57 df 3e
       -0.74563706 0.3009105 -1.056911 0.43621662
000130 17 c6 76 bf fb 5d 62 be d6 9d 3d bf 98 a7 13 bf
       -0.9639601 -0.22106163 -0.74068964 -0.576776
000140 36 ef 45 bf 17 18 b7 3e 85 63 13 3f 1b 63 85 3f
       -0.7731813 0.35760567 0.5757373 1.042087
000150 c2 58 da be 63 ad 3e bf 90 47 2a 3b 3c b0 81 3f
       -0.42645842 -0.7448332 0.0025982596 1.0131907
000160 70 26 d1 bf df 37 91 bd 31 6c 46 3f 05 15 30 bd
       -1.6339855 -0.07090735 0.77508837 -0.042988796
000170 4c 65 7f 3f 32 1d 39 be 58 30 55 bf 50 93 ef 3e
       0.9976394 -0.18077543 -0.8327689 0.46792078
