schwinger/asymmetric/3l-1p/opt_params.npy (npy, 608 bytes, 1 tensors)

array f4 [120]
000000 38 71 5a be cd fe 1f c0 5d 38 8f bf 63 1f a0 3f
       -0.21332252 -2.4999268 -1.1189076 1.2509578
000010 36 8a 84 bf 5f d7 17 3f d5 7a 30 bf 60 76 c2 bd
       -1.0354679 0.59313005 -0.68937427 -0.094952345
000020 10 9f 8c 3f e2 1b cf bf ad 68 3e 3f ac da 9b bf
       1.0986042 -1.6180384 0.7437847 -1.2176108
000030 a5 b4 06 be 86 70 93 3e e8 77 73 3f 5d 97 bb bf
       -0.13154848 0.28796786 0.9510484 -1.4655567
000040 d2 e7 df bf cf 4d 68 bf fe 94 c6 3e 79 9b 9b 3f
       -1.7492621 -0.90743726 0.38785547 1.2156821
000050 ce 14 7b be 81 4e 38 3f 34 91 0f 3f 76 78 9e bf
       -0.24519655 0.7199479 0.5608094 -1.2380512
000060 43 f5 0c bf 98 ce 18 bd 3f 91 40 3e 4c aa 9a 3e
       -0.5506174 -0.0373064 0.18805407 0.3020805
000070 61 92 ef 3e 69 96 24 3f 3b 00 78 3f 6b 5e 3c be
       0.46791366 0.6429201 0.9687535 -0.18395393
000080 e3 bd 7e 3f ac 4b 14 3f 25 04 41 bf ae c9 a8 bf
       0.99508494 0.57927966 -0.7539695 -1.3186548
000090 36 16 72 be 3f 4c 27 ba 3f 1a 0c 40 29 0e c1 be
       -0.23641285 -0.0006381906 2.189102 -0.37706116
0000a0 15 70 a1 3e 5d 83 2c 40 b9 ef 90 bf 0d 68 23 bf
       0.31530824 2.6955178 -1.1323158 -0.63830644
0000b0 a1 e8 2d 3c 32 b2 0e c0 67 32 19 40 55 d1 1f bf
       0.010614545 -2.2296262 2.3937013 -0.6242879
0000c0 17 dd 15 bf 04 ee ab bf f3 d1 63 3e a2 88 85 bf
       -0.5854048 -1.3432012 0.22248058 -1.0432322
0000d0 86 cd a3 be 44 3d d6 3d d8 36 26 3f e6 1b 17 be
       -0.3199274 0.10460904 0.64927435 -0.14756736
0000e0 52 a5 d0 bf 1e 0a b0 be 2f 7f 91 bf 39 6b ab 3f
       -1.6300452 -0.3438272 -1.1366938 1.3392097
0000f0 ea 3f 31 40 94 60 e8 be 6a b2 a3 bd 5b c1 ce 3f
       2.769526 -0.45386183 -0.07993014 1.6152757
000100 6a 0d e7 bf 27 d5 af 3e 25 4b 8b bf c9 59 e2 bf
       -1.8050969 0.3434231 -1.0882307 -1.768365
000110 a5 1c 47 3f 5c 7c de 3f f2 8f 99 bf b1 cb 6b bf
       0.77778083 1.7381701 -1.1997054 -0.92107683
000120 70 2c 0e 3f ae fd ef bd 0c a5 fb 3f c5 57 0b be
       0.55536556 -0.117183074 1.9659743 -0.136077
000130 c6 d9 96 3e 4f 26 5e bf af 7b e8 3f d3 56 a9 be
       0.29463023 -0.86777204 1.8162745 -0.33074054
000140 53 92 9b 3d ae 54 e7 bf 85 c3 e9 3f e9 be bc bf
       0.075962685 -1.8072717 1.8262793 -1.4745761
000150 ee 6a 30 3f 91 27 ce 3e bf 64 34 3f 1c 6f e1 3f
       0.6891316 0.40264562 0.70466226 1.7612033
000160 a5 ac a9 3f ba 44 68 bf 0e f1 90 be f4 2b 69 be
       1.3255812 -0.9072987 -0.2830891 -0.22770673
000170 0a fe 9a bf 5c e8 bb bf e9 0d 9e bf c3 d6 0a be
       -1.2108777 -1.4680285 -1.2347995 -0.13558488
000180 f9 23 86 3f 3d 23 82 bf 7f d9 a4 3f a3 58 aa 3f
       1.0479728 -1.0167004 1.2878875 1.33083
000190 cc bf 79 be 41 01 c0 be 93 90 94 3d b3 fc bd be
       -0.24389571 -0.37500957 0.07254138 -0.37106857
0001a0 c6 af 01 40 ff 5a ee be 24 65 57 bf de e1 fa bf
       2.0263534 -0.465538 -0.84138703 -1.9600179
0001b0 19 ff b0 bb 14 31 18 be f0 b4 d4 3f 53 5f 22 c0
       -0.0054015038 -0.14862472 1.6617718 -2.5370681
0001c0 31 b9 82 3e 14 fd f0 be ce d8 fe 3e 6f 46 59 bf
       0.25531915 -0.47068083 0.49774784 -0.848731
0001d0 8b ae 40 3f 88 de 02 3f d3 e3 a1 bf da 64 8f be
       0.7526633 0.51120806 -1.2647651 -0.2800663
